doc/NYC_new_r1_d0_w0_astcgn.npz (npz, 344367 bytes, 8 tensors)

train_x f8 [54, 172, 4, 1]
0	0xbfe984d616058845	-0.7974653654203016
1	0x3fe961d699326ea0	0.7931931488160053
2	0xbfe340ade259c65e	-0.601645414439371
3	0x400aa3839bc55d14	3.3298408670049273
4	0x3fec1567b2e81153	0.877612924029146
5	0xbff045c1295464ab	-1.0170299162330518
6	0xbfe0926f287a8a76	-0.5178752699469686
7	0x3fff64dc46b71837	1.9621241342843072
8	0xbfb385f5a5011632	-0.07626281050132702
9	0x3ff86493a2b606a5	1.5245548587703663
10	0xbfe33d197cad865a	-0.6012084422220128
11	0x4000d194fb36dbf5	2.102334940539999
12	0xbff90beed3f446dc	-1.5654133109532529
13	0x4006f5279795dd98	2.869704422246013
14	0xbfe3d9219f3dd631	-0.6202552900492205
15	0x3fd0e603d15e3303	0.2640389961823503
16	0xbff8aca146d8efbb	-1.542145992992103
17	0x40042835a5ac14f3	2.519633573831578
18	0xbfe1f830f7e6978c	-0.5615467874347231
19	0xbfc9fa03d91ad42c	-0.2029423532564193
20	0xbffb14fdc986f97f	-1.6926248428495396
21	0x4009b111465432bc	3.211458730167889
22	0xbfe3d9219f3dd631	-0.6202552900492205
23	0xbfd591aa0124c504	-0.33701562987978684
24	0xbffbd4ce4762a3c2	-1.7394545353401871
25	0x4011bf41ebcd3575	4.436774906539871
26	0xbfe2ac0472feeb45	-0.5834982152949598
27	0x4015c3a15d196efd	5.441045241048184
28	0x3fcf9106f2cda57f	0.24661337714796258
29	0xbfd565972a89b068	-0.33432559160315245
30	0xbfe243c91ec1c156	-0.5707746124954081
31	0x3fe809397d6b273e	0.751126046140804
32	0xbfe8cd22ec0fe7be	-0.77504106622586
33	0x3ffe03f7ee926cf0	1.8759688681810154
34	0xbfe21f2586936e54	-0.566302073329505
35	0x3fe7462d98af8b92	0.7273166639464412
36	0xbfce56e24df1110b	-0.23702648931260514
37	0x3ff70f37947b6f03	1.4412151146015624
38	0xbfe3058260d12bb8	-0.5944225207289184
39	0x3ff1d7a254aac230	1.1151450450235068
40	0xbfe95213bcf43020	-0.7912691774849954
41	0x3feb1186889ba15b	0.8458893459437989
42	0xbfe0a6a61b564e54	-0.5203428777626393
43	0x3feb7919cf36a13c	0.8585328147064852
44	0xbff3a81cb794f531	-1.228543011776605
45	0x3fd11a8b7f59bf2d	0.267245172849459
46	0xbfe222b9ec3fae59	-0.5667390455468634
47	0x3ff8cbc21420f7ed	1.549745634677943
48	0xbfe9f933d980e2e3	-0.8116702316393368
49	0x3ffa840c88953f27	1.6572385154031026
50	0xbfe393a4bc6a64e6	-0.6117728881828526
51	0x3fe77341696c8a00	0.7328192767202495
52	0xbfcecdaad8b663ac	-0.24065147000945097
53	0x3ff9d4341246eb1d	1.6143074716516772
54	0xbfe23b92cc1879c4	-0.5697721468202919
55	0x3ffbc0f8c8fddb1c	1.734612259982618
56	0xbff592c8bf3c9e99	-1.3483359785258584
57	0x3ff8e61d3e611672	1.556180232685986
58	0xbfe3525df6da11c0	-0.6038045712780828
59	0x3fef92e25b2cedee	0.986680200650367
60	0xbff6698fa256fced	-1.4007717458151163
61	0x3ffb35aa9fc71233	1.7006021729768122
62	0xbfe3269193533eb5	-0.5984580876774631
63	0x3ff5ae3c1d389d87	1.3550377980662647
64	0xbfe0ea82802f1fad	-0.5286266807170158
65	0x3fed12669afb3439	0.9084961916902393
66	0xbfe1949790a6752b	-0.5493886780929292
67	0x4006ef27a5784cdb	2.8667748381936753
68	0xbfe10519105cc7c0	-0.5318723029688428
69	0x3ffa84a8cd3a6265	1.6573875443192716
70	0xbfe34f6b48c4afdb	-0.6034447118049643
71	0x3ff54f4fed0d1973	1.3318633327304183
72	0xbff0d50d8e9370d6	-1.0520148820278812
73	0x400013920f035da7	2.009555928507058
74	0xbfe2846e2cbb365e	-0.5786658166559382
75	0x3ffad9f33b354326	1.6782104790510828
76	0x3fdcd7b67f9e7e9c	0.45066606962971334
77	0x3ff9410cf5948133	1.5783814995739476
78	0xbfe2a654feb11c2f	-0.5828042005968025
79	0x3ff2857132210386	1.1575786550676823
80	0x3fc0ab8750149f25	0.13023463640387792
81	0x3ff9e70ce79ed0de	1.6189087913199312
82	0xbfe348e435030df0	-0.6026478801144872
83	0x3fef539a3b0feb35	0.9789553788717514
84	0x3ff70531fa6dea1a	1.4387683660885444
85	0x3fe4fc2b40451801	0.6557823424598156
86	0xbfe34f3560e7bb25	-0.6034190075568843
87	0x3ff8339f33a31d38	1.512602998454737
88	0xbfcde701b36ccc27	-0.23361226330743642
89	0xbfd73cebc62cd079	-0.3630933223059923
90	0xbfe335bac978119c	-0.6003087935392162
91	0x3fe0ba8326c7e85a	0.5227676160277597
92	0x3fd5256da58516ae	0.33040944255877036
93	0xbfcb55ad105b8067	-0.21355212496473827
94	0xbfe28d104f1e675a	-0.5797196908272142
95	0x3ffab9e03573b57f	1.670379837796048
96	0xbfa79dae78a77c80	-0.04612488959150429
97	0x40008102222d698b	2.062992350588677
98	0xbfe2757ade73582c	-0.576840815042265
99	0x3fe66152d7663113	0.6993803221717222
100	0x3fe54a78c951f57c	0.665340798571989
101	0xbfeff0703ecb3bda	-0.9981003977244385
102	0xbfe18902c02de249	-0.5479749444485346
103	0x3fff9cc615f049f6	1.9757748467424086
104	0xbfe90fc787507914	-0.7831761973245954
105	0xbfe881904f132936	-0.7658158821516625
106	0xbfe22976e7de44f8	-0.5675615814854202
107	0x3fc1a34fa79a1d61	0.1377963608140176
108	0x3fe7134deaee0ecb	0.7211064899897449
109	0xbfe8372508d3398b	-0.7567315266003772
110	0xbfe250a15e681076	-0.5723425716282822
111	0x3fe80bd33f9d7100	0.7514435045700623
112	0x3fde18d7a36f7d3f	0.470266255955682
113	0xbfebc23ab241520c	-0.8674596292062815
114	0xbfe11bb9af39c763	-0.5346344396950652
115	0x3fed944bc1465d3d	0.9243525290393461
116	0x3fc1ba3e80711feb	0.13849622031761952
117	0xbfd1c45d5e49589b	-0.27761015136401007
118	0xbfe1e17326af5b33	-0.5587707286420937
119	0x3fec3b47c88c2453	0.8822363774244287
120	0xbfc12e21e8624bf7	-0.13422035071252456
121	0xbfe343d4e7bc1315	-0.6020302320544909
122	0xbfe0bb7ec5c8f051	-0.5228875983225497
123	0x3fe29906baeceb64	0.5811799670112632
124	0xbfda91ebf58f67bd	-0.4151563547180748
125	0xbff2f4f4953c03e7	-1.1848035649747943
126	0xbfe2ae55697d6f0c	-0.5837809620238388
127	0x3fe8d78a56560286	0.7763110815286189
128	0xbfea550d6e7bb327	-0.8228823812365577
129	0x3fdf2a531eb8a4bf	0.48695829391597195
130	0xbfe2f14b6df567db	-0.5919549129132479
131	0x3ffab2f0da42f0d1	1.6686867261733378
132	0xbfed473050a1f550	-0.9149400305611071
133	0xbfe69e8a2483e5f3	-0.7068529809177434
134	0xbfe2a947acc67e15	-0.5831640600699212
135	0x3fcb607036965074	0.21388056435955927
136	0xbff0f1e2b33ca3c6	-1.0590540887298956
137	0x3fd5f66995b2901d	0.3431648218049775
138	0xbfe2c4dd52d7b6b0	-0.5865313165683883
139	0x3fe6080921524ccc	0.688480916100525
140	0xbfe717fc6a6068c7	-0.7216779782932229
141	0xbff1c2ea87602a56	-1.1100869453536197
142	0xbfe16d6d1a1ca9ad	-0.5446076879500673
143	0x3fdec9edb74c238e	0.4810747423185199
144	0x3fb6080ecf3c5a91	0.08606045302836153
145	0xbfec9322e55ee59e	-0.8929609756370842
146	0xbfe13aadd31a4b4e	-0.5384129641628108
147	0x3fdb7d9818da998f	0.4295406573022768
148	0xbff59edea3ae76a2	-1.3512865442093376
149	0x3fe97e7634f037b1	0.7966872247650284
150	0xbfe3d9219f3dd631	-0.6202552900492205
151	0xbfda6b06c43e4b0b	-0.41278237499607034
152	0xbfe9717fdbb5c837	-0.7951049128735183
153	0x3ffabda3961d6e00	1.6712985862603773
154	0xbfe2f6c4fa66423c	-0.5926232233633253
155	0x3ffd73b56d7f0498	1.8407491948312664
156	0xbff6a339eba962cf	-1.4148501592191456
157	0x3ff133d2aee8a659	1.0751520950674573
158	0xbfe13b19a2d434b8	-0.5384643726589706
159	0xbfe04dd5d4a2ec68	-0.5095013764433931
160	0xbff58f28944daa96	-1.3474508088208146
161	0x3ff5f1567fe431ee	1.3714203830487537
162	0xbfe21032384b9024	-0.5644770717158321
163	0xbf966914dd0c77c0	-0.021885229102842407
164	0x3fa94f0ec76902ce	0.049431287614884675
165	0x3ff1123de44fadd9	1.0669535559089722
166	0xbfe3495004bcf75a	-0.602699288610647
167	0x3ff9003435c1c755	1.5625497913246893
168	0xbff67affadc80c68	-1.4050289905869935
169	0x4007df8e3932dee1	2.9841579884194833
170	0xbfe2f7d281b709c5	-0.5927517446037248
171	0xbfde37a879b60ba7	-0.4721471012673483
172	0xbffc13feea82ae3a	-1.7548817787709496
173	0x3fb3c6c7ec7e3a6a	0.07725190662152107
174	0xbfe25f28dcf6053d	-0.5741161647457954
175	0xbfdceffae4f5be71	-0.45214722022408355
176	0xbfd07167d95d772c	-0.2569217322069217
177	0x3f879d870eebb698	0.011530928747983268
178	0xbfe185da2a3b8bae	-0.547589380727336
179	0xbfd7e7ce7a5308d0	-0.3735233492444765
180	0xbff342136d06fd79	-1.203631807220374
181	0x3f6e82ab8125038c	0.003724417657537454
182	0xbfe12d9fab970779	-0.5368193007818568
183	0xbfe29a71306e21c4	-0.5813528009321591
184	0xbfe553fcd7583f7b	-0.6665024000121628
185	0xbfbf81c0217f374d	-0.12307358567997291
186	0xbfe24bff716b08e9	-0.5717770781705244
187	0xbfe1d153dbe7d9ff	-0.5568026824028606
188	0xbfe15f910ee42ede	-0.5429158488127219
189	0xbfc9e5414784da07	-0.20230880729805298
190	0xbfe279452bfc8ce6	-0.5773034915077033
191	0xbfd6c111d6ba61d7	-0.35553403825318014
192	0xbfd0360393facddb	-0.25329675151007586
193	0x3f7a637db5b71f21	0.0064425383129174405
194	0xbfe2814596c8dfc3	-0.5782802529347396
195	0xbfb758af890a5875	-0.09119698615754308
196	0x3fdb88c57b4b6482	0.4302228645370364
197	0x3fc53d1c10275bad	0.165927417647905
198	0xbfe2c1eaa4c254cb	-0.5861714570952697
199	0x3fd293fbe72dd547	0.29028222633435913
200	0xbff2a0fe42b336b9	-1.1643049817534303
201	0x3fe3b5c967f4d1aa	0.6159407644650419
202	0xbfe34bd6e3186fd6	-0.6030077395876059
203	0xbfd872819a226673	-0.38198890735802776
204	0xbfe58a8b8e26f8c8	-0.6731622482691586
205	0x3fe33f7764b017cc	0.601497360855086
206	0xbfe3054c78f43703	-0.5943968164808385
207	0x3fda6d655da071cd	0.4129269995044325
208	0xbfdc11e556e3968e	-0.4385922764325664
209	0x3fe5153105d9009a	0.6588368524753776
210	0xbfe3194d83f3062c	-0.5968387200484293
211	0x3fb6a6eb506e3516	0.08848448480258173
212	0xbfec49bcf8e816df	-0.8840012418229114
213	0x3faf75639e3e7c78	0.06144248301210892
214	0xbfe1be12fdaec46f	-0.55445241496467
215	0xbfe2cbda9a299b20	-0.5873845110880644
216	0x3fe42395d011c4a4	0.6293438972335434
217	0x3fe08793775abb70	0.5165498095646921
218	0xbfe280380f78183b	-0.5781517316943402
219	0xbfcb583b5639a099	-0.21363012037477772
220	0x3ff80d013a895d25	1.5031749998650608
221	0x3fd22340fb8c521d	0.28340172353026266
222	0xbfe25650d2b5df8c	-0.5730365863264395
223	0x3f93330e478f9f5b	0.018749449842203485
224	0xbfc88e3c4aa8c3a9	-0.19184068341703878
225	0xbff5f71f468d8f8c	-1.3728325611091092
226	0xbfdd46c5a49e80e9	-0.4574445827111178
227	0xbfd65ac755ab0cc9	-0.3492906891444361
228	0x3fe262010453935a	0.5744633755208313
229	0xbff7c5e3ccb6ad95	-1.4858129498123607
230	0xbfe02125e2204621	-0.5040463844799811
231	0xbfdb2ef0945fff4d	-0.42473997583146145
232	0x3fe92b8e5776460b	0.7865668972246466
233	0xbff56623c18414bc	-1.3374364432541332
234	0xbfe080bf13fa3f15	-0.5157161131082569
235	0x3f928c9dbafd2efe	0.01811453298368714
236	0xbfe475f59e5ff922	-0.6393993466624901
237	0xbff8a021f5add23f	-1.539094886477997
238	0xbfe174cbcd521e6b	-0.5455073366328639
239	0xbfd28aadf29ae9d6	-0.28971432392031937
240	0xbfda759b69517c3b	-0.4134281662463228
241	0xbff87f634e51740a	-1.5311005648902687
242	0xbfe11968b8bb439c	-0.5343516929661862
243	0xbfd57e97c65ea824	-0.33585161563917354
244	0x3ffce5ab60fd0d45	1.806071642743363
245	0xbff6eee389317782	-1.4333224639044322
246	0xbfe1a42c9685317b	-0.551290792450842
247	0x4001fc6fbcf477b6	2.2482599985223386
248	0x3fe906f44483e3a7	0.7820988977610924
249	0xbff602d554cea43e	-1.3756917298108102
250	0xbfe1d6ebdd878fda	-0.5574855162380985
251	0x3fc659ffa2bfcbff	0.17462153860796545
252	0x3ff4a415cd9dc85c	1.2900598556411955
253	0xbff3ecdc5c50dded	-1.245327339753085
254	0xbfe05e6c724a6fda	-0.5115263206712328
255	0x3fe76e0de507f67d	0.7321843598617331

train_target f8 [54, 172, 1]
0	0x400aa3839bc55d17	3.3298408670049287
1	0x3fff64dc46b7183a	1.9621241342843079
2	0x4000d194fb36dbf7	2.10233494054
3	0x3fd0e603d15e3304	0.2640389961823504
4	0xbfc9fa03d91ad42e	-0.20294235325641935
5	0xbfd591aa0124c507	-0.337015629879787
6	0x4015c3a15d196eff	5.441045241048186
7	0x3fe809397d6b2741	0.7511260461408044
8	0x3fe7462d98af8b94	0.7273166639464415
9	0x3ff1d7a254aac232	1.1151450450235072
10	0x3feb7919cf36a13f	0.8585328147064856
11	0x3ff8cbc21420f7ef	1.5497456346779435
12	0x3fe77341696c8a03	0.7328192767202498
13	0x3ffbc0f8c8fddb1f	1.7346122599826186
14	0x3fef92e25b2cedf1	0.9866802006503673
15	0x3ff5ae3c1d389d8a	1.3550377980662653
16	0x4006ef27a5784cdd	2.866774838193676
17	0x3ff54f4fed0d1975	1.3318633327304188
18	0x3ffad9f33b354329	1.6782104790510834
19	0x3ff2857132210388	1.1575786550676828
20	0x3fef539a3b0feb39	0.9789553788717519
21	0x3ff8339f33a31d3b	1.5126029984547376
22	0x3fe0ba8326c7e85c	0.5227676160277599
23	0x3ffab9e03573b582	1.6703798377960486
24	0x3fe66152d7663115	0.6993803221717224
25	0x3fff9cc615f049f9	1.9757748467424092
26	0x3fc1a34fa79a1d63	0.13779636081401767
27	0x3fe80bd33f9d7102	0.7514435045700625
28	0x3fed944bc1465d40	0.9243525290393464
29	0x3fec3b47c88c2456	0.8822363774244291
30	0x3fe29906baeceb66	0.5811799670112634
31	0x3fe8d78a56560289	0.7763110815286193
32	0x3ffab2f0da42f0d4	1.6686867261733385
33	0x3fcb607036965077	0.21388056435955935
34	0x3fe6080921524cce	0.6884809161005252
35	0x3fdec9edb74c2392	0.4810747423185201
36	0x3fdb7d9818da9992	0.429540657302277
37	0xbfda6b06c43e4b0e	-0.4127823749960705
38	0x3ffd73b56d7f049b	1.840749194831267
39	0xbfe04dd5d4a2ec6a	-0.5095013764433933
40	0xbf966914dd0c77c3	-0.021885229102842418
41	0x3ff9003435c1c757	1.5625497913246897
42	0xbfde37a879b60baa	-0.4721471012673485
43	0xbfdceffae4f5be74	-0.4521472202240837
44	0xbfd7e7ce7a5308d3	-0.37352334924447667
45	0xbfe29a71306e21c6	-0.5813528009321594
46	0xbfe1d153dbe7da01	-0.5568026824028608
47	0xbfd6c111d6ba61da	-0.3555340382531803
48	0xbfb758af890a5877	-0.09119698615754311
49	0x3fd293fbe72dd549	0.29028222633435924
50	0xbfd872819a226675	-0.3819889073580279
51	0x3fda6d655da071d0	0.4129269995044327
52	0x3fb6a6eb506e3518	0.08848448480258175
53	0xbfe2cbda9a299b22	-0.5873845110880647
54	0xbfcb583b5639a09c	-0.2136301203747778
55	0x3f93330e478f9f5d	0.018749449842203492
56	0xbfd65ac755ab0ccc	-0.3492906891444363
57	0xbfdb2ef0945fff50	-0.4247399758314616
58	0x3f928c9dbafd2f00	0.018114532983687148
59	0xbfd28aadf29ae9d8	-0.2897143239203195
60	0xbfd57e97c65ea827	-0.3358516156391737
61	0x4001fc6fbcf477b8	2.2482599985223395
62	0x3fc659ffa2bfcc02	0.17462153860796553
63	0x3fe76e0de507f680	0.7321843598617335
64	0xbfdceffae4f5be74	-0.4521472202240837
65	0x3fc0e4995bdcfca4	0.1319762896109512
66	0xbfcae5cdf594f35c	-0.2101380776529379
67	0x3fb4ba8905e7a8b1	0.08097130197680504
68	0x3fac133013b3c89d	0.05483389130121561
69	0xbfde29c9c354824d	-0.47130054545599337
70	0xbfd06514f7c206d1	-0.2561695498953727
71	0xbfcebb1add09a9d3	-0.2400849894796254
72	0xbfda0833f0c75857	-0.40675066484016525
73	0xbfe074d835953ebf	-0.5142632528822658
74	0xbfa409588ea0b21f	-0.03913380375920305
75	0xbfe15e088fdd142c	-0.5427286920390819
76	0xbfcf6bf272654135	-0.2454817827770143
77	0xbfda78e57a9fd46b	-0.41362893080742563
78	0xbfd9c80de5443d08	-0.4028353442126478
79	0xbfde458730179507	-0.4729936570787036
80	0xbfe31c791e40898e	-0.5972257223950679
81	0xbfda2ae0b8bb2fbf	-0.40886705436855303
82	0xbfdb7605fb13df4d	-0.42907857436465663
83	0xbfe36016d75c0734	-0.6054796415557804
84	0xbfe1198ceb5b7df0	-0.53436895340195
85	0xbfe08a84328da561	-0.5169087397927506
86	0x3f7a15ee49a04145	0.006368571101134817
87	0xbfe391804117808f	-0.6115113517116856
88	0xbfddd319cf72e7c8	-0.4660095716350239
89	0xbfe26ba188e4f22c	-0.5756385492055123
90	0xbfe3c8fb1a9da604	-0.6182837982025267
91	0x3fb82b4743193b45	0.09441037548206761
92	0x3fb6a6eb506e3518	0.08848448480258175
93	0x3fb7544b38316a23	0.09112997171306651
94	0xbfd56b858b988b47	-0.3346876013985604
95	0x3fcf2466ba111b3a	0.2432983788041499
96	0xbfdccf09f3ce1837	-0.4501366501721153
97	0xbfdb728e4d7b7cf5	-0.4288669354118178
98	0xbfd7833fd00fe4f0	-0.367385819612152
99	0x3fd1c23360aa97a9	0.27747806968761296
100	0xbfe2318ced2c82f7	-0.5685486442854132
101	0xbfe39cc53546c02b	-0.6128870049051377
102	0xbfe194a57dfd210a	-0.5493953190535035
103	0xbfdf9268493c75c0	-0.49331099655122657
104	0xbfde97039f949c0a	-0.477967172470415
105	0xbfe01c6c6ae7730e	-0.503469666287488
106	0xbfc398d375bde5a3	-0.1531013798628865
107	0xbfe0f0ceb39cfa6f	-0.5293954380102387
108	0xbfd88ac7594d16d8	-0.38347038002789935
109	0xbfe30e9a67df0031	-0.5955326107723576
110	0xbfddd6917d0b4a1f	-0.46622121058786264
111	0xbfd617299c8f8f26	-0.34516372956408004
112	0xbfd640c5bfb42b3d	-0.3477033969981454
113	0x3fb39e336b1828be	0.07663270344361003
114	0xbfde37a879b60baa	-0.4721471012673485
115	0xbfe19ab6edc7cd23	-0.5501360553884392
116	0xbfd506f6e1556764	-0.32855007176623574
117	0x3fb3b3017caa76c9	0.0769501618728682
118	0x3fd26a5fc4093931	0.2877425589002938
119	0xbfc0ce85c51ec36b	-0.13130256772049206
120	0xbfe236c071911679	-0.5691835611439294
121	0xbfe2d3a7e0c07866	-0.5883368863758391
122	0xbfdd0684cd543dab	-0.4535228734175358
123	0xbfdf47db34f0336c	-0.4887607590651928
124	0xbfddda092aa3ac76	-0.4664328495407014
125	0xbfe1b90e1cbd299e	-0.5538397370631178
126	0xbfe2aae9a901f4e5	-0.5833633709841278
127	0xbfe0522b6da16757	-0.5100304738254903
128	0xbfdd86d0e45a7448	-0.4613535146725707
129	0xbfe3507c4a2e4cab	-0.6035748909802313
130	0xbfe03907c3109e5e	-0.5069617090093279
131	0xbfe36df58dbd9091	-0.6071727531784906
132	0xbfe305ef35e20a57	-0.5944744160081638
133	0xbfe3437b7f32dbe4	-0.6019875988339405
134	0xbfe2318ced2c82f7	-0.5685486442854132
135	0xbfa3394bdee9a5ab	-0.03754651161291219
136	0xbfe2c862ec9138ca	-0.586961233182387
137	0xbfe3e83034f91b15	-0.6220932993536247
138	0xbfdc8ee3e84afce9	-0.44622132954459787
139	0xbf8c59b12645d109	-0.013842948894968747
140	0xbfe38a90e5e6bbe1	-0.6106647959003305
141	0xbfdbfefd44170bc4	-0.4374383130017885
142	0xbfb43b299221fe12	-0.07902774636931323
143	0xbfdece7e791ac17e	-0.48135339571583546
144	0xbfd2da6e8b4bbfaf	-0.29458201983561144
145	0xbfe02439b17e5053	-0.5044220415752626
146	0xbfe2d563b78ca992	-0.588548525328678
147	0xbfe38ee67ee536ce	-0.6111938932824275
148	0xbfd97f3ca7c42be0	-0.3983909262030334
149	0xbfe0296d35e2e3d6	-0.505056958433779
150	0xbfe3b7a4b6a3ba4f	-0.6161674086741388
151	0xbfe2a31c626b17a0	-0.5824109956963532
152	0xbfe1633c1441a7af	-0.5433636088975983
153	0xbfe3cd50b39c20f1	-0.6188128955846236
154	0xbfe3d3622366cd09	-0.6195536319195593
155	0xbfe22725e4635bf1	-0.5672788105683805
156	0xbfd9fdcce7fe3151	-0.4061157479816489
157	0xbfdff007984ed4f4	-0.49902524827787365
158	0xbfe3785c9686b797	-0.6084425868955233
159	0xbfe153a18713ed26	-0.5414588583220492
160	0xbfda03006c62c4d4	-0.4064332064109071
161	0xbfe3453755ff0d10	-0.6021992377867793
162	0xbfd49ef08979e12a	-0.3222009031810723
163	0xbfd449fc6c6477d0	-0.31701574883652217
164	0xbfe096a71222fd92	-0.5183902124626221
165	0xbfdeb2c10c57aec4	-0.4796602840931252
166	0xbfe1d921227eb745	-0.5577550576906353
167	0xbfe0bbed9c491ebc	-0.5229404499486558
168	0xbfdc39efcb35938f	-0.44103617520004773
169	0xbfde8c9c96cb7504	-0.4773322556118986
170	0xbfe37cb22f853284	-0.6089716842776203
171	0xbfc8e81547147b41	-0.19458261461928753
172	0x400ae10fe5162ea4	3.3598935983080356
173	0x3ffc4f2396659b19	1.7693210482481787
174	0x3fff3cfbfa5ead4f	1.952388742453724
175	0x3fca363be5654727	0.2047800893874918
176	0xbfc97d2f6facffe9	-0.1991328521053213
177	0xbfd4dd5abe30cb4d	-0.3260104043321704
178	0x40229f7cb83c414c	9.311498410563807
179	0x3fe57d560182ef2c	0.6715497998734228
180	0x3fe50f3e39dcbcd9	0.6581107263681601
181	0x3ff0a6ed9dfc007e	1.0407539531006758
182	0x3ff53167b3cac944	1.3245617888574808
183	0x3ff86cd5e3f573db	1.5265711693420971
184	0x3fe5ec4bb48f3a14	0.6850946928551047
185	0x3ffa32a4c33cba37	1.6373641611531988
186	0x3fecdd62bc2019c5	0.902024619514855
187	0x3ff456160fe47d35	1.2710171337892693
188	0x4004f8cd47dba5bb	2.621485291853529
189	0x3ff5362c427c507c	1.325725803098094
190	0x3ff9afbeea0439d9	1.605406679274543
191	0x3ff18ca64aab7393	1.0968382756029527
192	0x3fe9bb872c394472	0.8041416038269189
193	0x3ff7a7303d078e6d	1.478317488094855
194	0x3fdc25c47c393b1a	0.43980514651495783
195	0x3ff75ca328bb4c19	1.46011653815072
196	0x3fe3807b3e688fa6	0.6094337672152406
197	0x3ffdf089d6ecd8e1	1.8712252040400517
198	0x3fb4eb14843d0977	0.08171203831174077
199	0x3fe59f24de10adff	0.675676759453779
200	0x3fe95de7dd26e53e	0.7927131003736247
201	0x3fea41e4b30a2727	0.8205436226719244
202	0x3fdd3ce692a4278a	0.45684208221847966
203	0x3fe6a334b9b57d8f	0.7074226023795961
204	0x3ff936622e2ec7eb	1.5757772258771137
205	0x3fcc6480123b2008	0.22181702509101364
206	0x3fe8cfbd0fbf2544	0.7753587062408447
207	0x3fd1ce56403fefdb	0.2782188060225487
208	0x3fda3272d681ea04	0.4093291373061734
209	0xbfd345ec90bfa840	-0.30114282737361364
210	0x3ffe5ce5c7c6da07	1.897680073144899
211	0xbfe03ba18542e820	-0.5072791674385861
212	0xbfa8355569f7031b	-0.04728190344349611
213	0x3ff7d74cc5a9e2e8	1.4900634499774075
214	0xbfde0e0c56916f93	-0.4696074338332831
215	0xbfdc6a7b498af455	-0.4439991205397907
216	0xbfd9095799871c49	-0.39119520180651485
217	0xbfe2b9a64ac996d8	-0.5851623020832575
218	0xbfe1d075f081c16b	-0.5566968629264414
219	0xbfd3171ce93678a6	-0.2982857015102901
220	0xbfabbae1b8bae3bb	-0.054160169410756485
221	0x3fd56c284e2e80dd	0.33472640643050317
222	0xbfda1b462b8d7537	-0.40791467908077855
223	0x3fda5c0ef9a6861c	0.4118688047402388
224	0x3fbda42537946cfa	0.11578590971878447
225	0xbfe2eb0fb4851033	-0.5911940122391627
226	0xbfd125871a4b58bc	-0.26791551177792505
227	0xbfa7732770a18004	-0.04580043077362464
228	0xbfd78a2f2b40a99f	-0.3678090975178296
229	0xbfdd3020f078d9c2	-0.45606254085160114
230	0x4001bf89e430389c	2.218524725648491
231	0xbfce3067bd3a4c30	-0.23585221042284976
232	0xbfd14bab8fd7927c	-0.27024354025915165
233	0x4010a6a6e0e46b53	4.162745965901951
234	0x400094e69d4c2300	2.0727054871425707
235	0x3fe3ebf943dc7838	0.6225553822912451
236	0xbfdd73bea9945768	-0.4601895004319574
237	0xbfb0aeade82d58c3	-0.06516539495837308
238	0xbfcd02bbbe70e089	-0.22664591597436282
239	0xbfa362e8020e41c2	-0.03786397004217036
240	0x3f8ca584528aa94e	0.013987573403330924
241	0xbfdf1593dfcea17b	-0.4856919942490305
242	0xbfd03111cbd443b4	-0.252994965602791
243	0xbfd26b78d83f74c7	-0.2878095733447705
244	0xbfdcbbf7b907fb57	-0.448972635931502
245	0xbfe0e134266f3fe6	-0.5274906874346896
246	0x3fba78c08a4a8937	0.10340503097771579
247	0xbfe152c39badd490	-0.5413530388456298
248	0xbfd618e5735bc052	-0.34526954904049945
249	0xbfd9978266eedc43	-0.3998723988729049
250	0xbfd980f87e905d0c	-0.3984967456794528
251	0xbfdf1ffae897c881	-0.48632691110754683
252	0xbfe32524503d7f69	-0.5982839171592619
253	0xbfdc7bd1ad84e009	-0.44505731530398457
254	0xbfd980f87e905d0c	-0.3984967456794528
255	0xbfe36fb16489c1bd	-0.6073843921313294

val_x f8 [18, 172, 4, 1]
0	0xbfe984d616058845	-0.7974653654203016
1	0x3fe961d699326ea0	0.7931931488160053
2	0xbfe340ade259c65e	-0.601645414439371
3	0x400bd7b0000c811f	3.4803161624733003
4	0x3fec1567b2e81153	0.877612924029146
5	0xbff045c1295464ab	-1.0170299162330518
6	0xbfe2f981c09eaf6c	-0.592957378588364
7	0x3ffa7486a58c06ae	1.6534487215689455
8	0xbfb385f5a5011632	-0.07626281050132702
9	0x3ff86493a2b606a5	1.5245548587703663
10	0xbfe22bfdc639bd74	-0.5678700324623791
11	0x3ff93050be641bcf	1.5742957532072415
12	0xbff90beed3f446dc	-1.5654133109532529
13	0x4006f5279795dd98	2.869704422246013
14	0xbfe3d9219f3dd631	-0.6202552900492205
15	0x3fcbbe0f85a8afa8	0.2167376902228828
16	0xbff8aca146d8efbb	-1.542145992992103
17	0x40042835a5ac14f3	2.519633573831578
18	0xbfe1f830f7e6978c	-0.5615467874347231
19	0xbfcac698db397e48	-0.20918570236516332
20	0xbffb14fdc986f97f	-1.6926248428495396
21	0x4009b111465432bc	3.211458730167889
22	0xbfddf7a671a172bc	-0.46824036690467685
23	0xbfd4bc69cd09250e	-0.32399983428020185
24	0xbffbd4ce4762a3c2	-1.7394545353401871
25	0x4011bf41ebcd3575	4.436774906539871
26	0xbfe2ac0472feeb45	-0.5834982152949598
27	0x401a5f5619756064	6.593101880826087
28	0x3fcf9106f2cda57f	0.24661337714796258
29	0xbfd565972a89b068	-0.33432559160315245
30	0xbfe2d72f1eeee031	-0.5887675861513398
31	0x3fe858fa161bfd15	0.7608614379713879
32	0xbfe8cd22ec0fe7be	-0.77504106622586
33	0x3ffe03f7ee926cf0	1.8759688681810154
34	0xbfe1a1040092dae0	-0.5509052287296434
35	0x3fe5eb6dc929217c	0.6849888733786851
36	0xbfce56e24df1110b	-0.23702648931260514
37	0x3ff70f37947b6f03	1.4412151146015624
38	0xbfe2b0dc47d8e788	-0.5840894130007976
39	0x3ff21c8ceedf64b7	1.13197034177419
40	0xbfe95213bcf43020	-0.7912691774849954
41	0x3feb1186889ba15b	0.8458893459437989
42	0xbfe26d448bca109b	-0.575838349367149
43	0x3fe48e1437706da5	0.6423436243816708
44	0xbff3a81cb794f531	-1.228543011776605
45	0x3fd11a8b7f59bf2d	0.267245172849459
46	0xbfe346ff0e3e7393	-0.6024165418817681
47	0x3ffa446a1ce9b233	1.6417027596863931
48	0xbfe9f933d980e2e3	-0.8116702316393368
49	0x3ffa840c88953f27	1.6572385154031026
50	0xbfe2c363fbcd05be	-0.5863513868318291
51	0x3fe74ed8caac816c	0.7283748587106351
52	0xbfcecdaad8b663ac	-0.24065147000945097
53	0x3ff9d4341246eb1d	1.6143074716516772
54	0xbfe16ccb6285cb8e	-0.5445305752058276
55	0x3ffaae9b414475e4	1.667628531409144
56	0xbff592c8bf3c9e99	-1.3483359785258584
57	0x3ff8e61d3e611672	1.556180232685986
58	0xbfe2cb646699589b	-0.5873281482588654
59	0x3fecea63871b8a89	0.9036119116611455
60	0xbff6698fa256fced	-1.4007717458151163
61	0x3ffb35aa9fc71233	1.7006021729768122
62	0xbfe3d9219f3dd631	-0.6202552900492205
63	0x3ff560a651070527	1.336096111787194
64	0xbfe0ea82802f1fad	-0.5286266807170158
65	0x3fed12669afb3439	0.9084961916902393
66	0xbfe2561aead8ead7	-0.5730108820783596
67	0x40054e305aa41b5e	2.663178165562768
68	0xbfe10519105cc7c0	-0.5318723029688428
69	0x3ffa84a8cd3a6265	1.6573875443192716
70	0xbfe297cd80232768	-0.5810306074792893
71	0x3ff5f55183ec7d84	1.3723921921990447
72	0xbff0d50d8e9370d6	-1.0520148820278812
73	0x400013920f035da7	2.009555928507058
74	0xbfe2846e2cbb365e	-0.5786658166559382
75	0x3ff9d5e35f907396	1.6147187931994487
76	0x3fdcd7b67f9e7e9c	0.45066606962971334
77	0x3ff9410cf5948133	1.5783814995739476
78	0xbfe3b704e56afbaa	-0.6160912018602762
79	0x3ff087b883a08b6b	1.0331349507984793
80	0x3fc0ab8750149f25	0.13023463640387792
81	0x3ff9e70ce79ed0de	1.6189087913199312
82	0xbfe36ce6159a82d3	-0.6070433065361506
83	0x3fe8bd88c05f20f8	0.7731364972360373
84	0x3ff70531fa6dea1a	1.4387683660885444
85	0x3fe4fc2b40451801	0.6557823424598156
86	0xbfe2697a3e40dbe1	-0.5753756729017107
87	0x3ff795d9d90da2b6	1.4740847090380789
88	0xbfcde701b36ccc27	-0.23361226330743642
89	0xbfd73cebc62cd079	-0.3630933223059923
90	0xbfe2c8dd883de01f	-0.5870196972819065
91	0x3fd7fb8377af1b47	0.3747261685170326
92	0x3fd5256da58516ae	0.33040944255877036
93	0xbfcb55ad105b8067	-0.21355212496473827
94	0xbfe2ae1f81a07a57	-0.5837552577757589
95	0x3ff769a3f3b6bcdd	1.463291122443301
96	0xbfa79dae78a77c80	-0.04612488959150429
97	0x40008102222d698b	2.062992350588677
98	0xbfe2fac52fcc6baa	-0.5931116040768434
99	0x3fe61bf9477e8242	0.690914764058171
100	0x3fe54a78c951f57c	0.665340798571989
101	0xbfeff0703ecb3bda	-0.9981003977244385
102	0xbfe1f49c923a5788	-0.5611098152173648
103	0x3ffda749a3b9bb6a	1.8533417125251739
104	0xbfe90fc787507914	-0.7831761973245954
105	0xbfe881904f132936	-0.7658158821516625
106	0xbfe1e17326af5b33	-0.5587707286420937
107	0x3f9d9a1710b6a521	0.028908119578464956
108	0x3fe7134deaee0ecb	0.7211064899897449
109	0xbfe8372508d3398b	-0.7567315266003772
110	0xbfe1334f1fe4d690	-0.5375133154800142
111	0x3fe1fcfd3723a20d	0.5621324612557729
112	0x3fde18d7a36f7d3f	0.470266255955682
113	0xbfebc23ab241520c	-0.8674596292062815
114	0xbfe13d34b175c3ca	-0.5387214151397697
115	0x3fea8e2d9e229aa4	0.8298557365968304
116	0x3fc1ba3e80711feb	0.13849622031761952
117	0xbfd1c45d5e49589b	-0.27761015136401007
118	0xbfe2294100015044	-0.5675358772373404
119	0x3fe439201a5b044b	0.6319733156925705
120	0xbfc12e21e8624bf7	-0.13422035071252456
121	0xbfe343d4e7bc1315	-0.6020302320544909
122	0xbfe182e77c2629c9	-0.5472295212542174
123	0x3fdaf129223f0ac1	0.4209692797123062
124	0xbfda91ebf58f67bd	-0.4151563547180748
125	0xbff2f4f4953c03e7	-1.1848035649747943
126	0xbfe2ae55697d6f0c	-0.5837809620238388
127	0x3fe630c75910d04d	0.6934544314922363
128	0xbfea550d6e7bb327	-0.8228823812365577
129	0x3fdf2a531eb8a4bf	0.48695829391597195
130	0xbfe2a40408329868	-0.5825214538679235
131	0x3ff9d26bb1f8113f	1.6138722373880936
132	0xbfed473050a1f550	-0.9149400305611071
133	0xbfe69e8a2483e5f3	-0.7068529809177434
134	0xbfe1deb66076ee02	-0.5584365734170549
135	0x3fc8fab1303a5220	0.1951505170333272
136	0xbff0f1e2b33ca3c6	-1.0590540887298956
137	0x3fd5f66995b2901d	0.3431648218049775
138	0xbfde57ab7335551a	-0.4741009354668947
139	0x3fe6b2cf46e33815	0.7093273529551448
140	0xbfe717fc6a6068c7	-0.7216779782932229
141	0xbff1c2ea87602a56	-1.1100869453536197
142	0xbfe2f0a9b65e89bc	-0.5918778001690082
143	0x3fc9d524e8ba8599	0.20181714404774878
144	0x3fb6080ecf3c5a91	0.08606045302836153
145	0xbfec9322e55ee59e	-0.8929609756370842
146	0xbfe01b4085f58256	-0.5033266655337438
147	0x3fceb1f9596c6df7	0.23980633608230992
148	0xbff59edea3ae76a2	-1.3512865442093376
149	0x3fe97e7634f037b1	0.7966872247650284
150	0xbfe324ac6c8ea459	-0.5982267494447441
151	0xbfd7144a1d039a06	-0.3606133731213109
152	0xbfe9717fdbb5c837	-0.7951049128735183
153	0x3ffabda3961d6e00	1.6712985862603773
154	0xbfe2ab2cd38b1871	-0.5833953983026402
155	0x3ffaa967bcdfe261	1.6663586976921112
156	0xbff6a339eba962cf	-1.4148501592191456
157	0x3ff133d2aee8a659	1.0751520950674573
158	0xbfe13b19a2d434b8	-0.5384643726589706
159	0xbfdfd6060257f362	-0.4974379561315826
160	0xbff58f28944daa96	-1.3474508088208146
161	0x3ff5f1567fe431ee	1.3714203830487537
162	0xbfe2c6f8617945c2	-0.5867883590491874
163	0xbfa6bed82dad8648	-0.04442477758017255
164	0x3fa94f0ec76902ce	0.049431287614884675
165	0x3ff1123de44fadd9	1.0669535559089722
166	0xbfe3014c438e0d94	-0.5939084357673203
167	0x3ff38f927d907f2f	1.222551813589188
168	0xbff67affadc80c68	-1.4050289905869935
169	0x4007df8e3932dee1	2.9841579884194833
170	0xbfe3d9219f3dd631	-0.6202552900492205
171	0xbfdd3dffa6da631c	-0.4569090966629561
172	0xbffc13feea82ae3a	-1.7548817787709496
173	0x3fb3c6c7ec7e3a6a	0.07725190662152107
174	0xbfe25f28dcf6053d	-0.5741161647457954
175	0xbfdd78f22df8eae8	-0.4605069588612154
176	0xbfd07167d95d772c	-0.2569217322069217
177	0x3f879d870eebb698	0.011530928747983268
178	0xbfe185da2a3b8bae	-0.547589380727336
179	0xbfd6590b7ededb9e	-0.34918486966801676
180	0xbff342136d06fd79	-1.203631807220374
181	0x3f6e82ab8125038c	0.003724417657537454
182	0xbfe21175a7794c61	-0.5646312972043114
183	0xbfe2d1ec09f44738	-0.5881252474230001
184	0xbfe553fcd7583f7b	-0.6665024000121628
185	0xbfbf81c0217f374d	-0.12307358567997291
186	0xbfe1ad3a88a24be1	-0.5523960751182778
187	0xbfe1fa1213a65d80	-0.5617761977945719
188	0xbfe15f910ee42ede	-0.5429158488127219
189	0xbfc9e5414784da07	-0.20230880729805298
190	0xbfe246f1b4b417f1	-0.5711601762166066
191	0xbfdd38cc2275cf99	-0.4565916382336979
192	0xbfd0360393facddb	-0.25329675151007586
193	0x3f7a637db5b71f21	0.0064425383129174405
194	0xbfe21eef9eb679a0	-0.5662763690814252
195	0xbfcb5f2ab16a6547	-0.21384175932761648
196	0x3fdb88c57b4b6482	0.4302228645370364
197	0x3fc53d1c10275bad	0.165927417647905
198	0xbfe24a5032836341	-0.5715714441858851
199	0x3fb00ac865f2bebf	0.06266453255625047
200	0xbff2a0fe42b336b9	-1.1643049817534303
201	0x3fe3b5c967f4d1aa	0.6159407644650419
202	0xbfe34bd6e3186fd6	-0.6030077395876059
203	0xbfda129af9907f5a	-0.40738558169868144
204	0xbfe58a8b8e26f8c8	-0.6731622482691586
205	0x3fe33f7764b017cc	0.601497360855086
206	0xbfe3054c78f43703	-0.5943968164808385
207	0x3f8c368e9f7e5e63	0.013775934450492138
208	0xbfdc11e556e3968e	-0.4385922764325664
209	0x3fe5153105d9009a	0.6588368524753776
210	0xbfe35950da559d14	-0.6046528114647196
211	0x3fb3ac122179b219	0.07684434239644879
212	0xbfec49bcf8e816df	-0.8840012418229114
213	0x3faf75639e3e7c78	0.06144248301210892
214	0xbfe056d7d7380666	-0.5106009677403562
215	0xbfe2e5dc30207cae	-0.5905590953806461
216	0x3fe42395d011c4a4	0.6293438972335434
217	0x3fe08793775abb70	0.5165498095646921
218	0xbfe25daf85eb544a	-0.5739362350092361
219	0xbfcefcfcbf58f649	-0.2420955595315937
220	0x3ff80d013a895d25	1.5031749998650608
221	0x3fd22340fb8c521d	0.28340172353026266
222	0xbfe2289f486a7225	-0.5674587644931007
223	0xbf9f4bc1b388775a	-0.030562426169232416
224	0xbfc88e3c4aa8c3a9	-0.19184068341703878
225	0xbff5f71f468d8f8c	-1.3728325611091092
226	0xbfe2490cc355a703	-0.5714172186974057
227	0xbfd82638af09f2f3	-0.37733285039557457
228	0x3fe262010453935a	0.5744633755208313
229	0xbff7c5e3ccb6ad95	-1.4858129498123607
230	0xbfe0e5301aae344a	-0.5279770394423704
231	0xbfdd3c43d00e31f1	-0.45680327718653674
232	0x3fe92b8e5776460b	0.7865668972246466
233	0xbff56623c18414bc	-1.3374364432541332
234	0xbfe066010d5cd94d	-0.5124516736021093
235	0xbfc147e280f43558	-0.1350062493951707
236	0xbfe475f59e5ff922	-0.6393993466624901
237	0xbff8a021f5add23f	-1.539094886477997
238	0xbfe1e42fece7c864	-0.5591048838671324
239	0xbfd1a5d331518f57	-0.27574615303295985
240	0xbfda759b69517c3b	-0.4134281662463228
241	0xbff87f634e51740a	-1.5311005648902687
242	0xbfe0b4f7b2074e67	-0.5220907666320728
243	0xbfd84fd4d22e8f0a	-0.37987251782963993
244	0x3ffce5ab60fd0d45	1.806071642743363
245	0xbff6eee389317782	-1.4333224639044322
246	0xbfe1771cc3d0a232	-0.5457900833617428
247	0x40104e56d3a362b3	4.076503092620146
248	0x3fe906f44483e3a7	0.7820988977610924
249	0xbff602d554cea43e	-1.3756917298108102
250	0xbfe21032384b9024	-0.5644770717158321
251	0x3ff2408697ec6100	1.1407533583169993
252	0x3ff4a415cd9dc85c	1.2900598556411955
253	0xbff3ecdc5c50dded	-1.245327339753085
254	0xbfe17645245ccf5e	-0.5456872663694232
255	0x3fd63a7927195c23	0.3473189241244105

val_target f8 [18, 172, 1]
0	0x400bd7b0000c8122	3.4803161624733017
1	0x3ffa7486a58c06b1	1.6534487215689462
2	0x3ff93050be641bd2	1.5742957532072421
3	0x3fcbbe0f85a8afab	0.2167376902228829
4	0xbfcac698db397e4b	-0.2091857023651634
5	0xbfd4bc69cd092510	-0.32399983428020196
6	0x401a5f5619756067	6.593101880826089
7	0x3fe858fa161bfd18	0.7608614379713883
8	0x3fe5eb6dc929217e	0.6849888733786853
9	0x3ff21c8ceedf64b9	1.1319703417741904
10	0x3fe48e1437706da7	0.642343624381671
11	0x3ffa446a1ce9b236	1.6417027596863938
12	0x3fe74ed8caac816f	0.7283748587106355
13	0x3ffaae9b414475e6	1.6676285314091444
14	0x3fecea63871b8a8c	0.9036119116611459
15	0x3ff560a651070529	1.3360961117871943
16	0x40054e305aa41b60	2.663178165562769
17	0x3ff5f55183ec7d86	1.3723921921990452
18	0x3ff9d5e35f907399	1.6147187931994493
19	0x3ff087b883a08b6d	1.0331349507984797
20	0x3fe8bd88c05f20fa	0.7731364972360375
21	0x3ff795d9d90da2b9	1.4740847090380795
22	0x3fd7fb8377af1b49	0.3747261685170327
23	0x3ff769a3f3b6bce0	1.4632911224433016
24	0x3fe61bf9477e8244	0.6909147640581712
25	0x3ffda749a3b9bb6d	1.8533417125251745
26	0x3f9d9a1710b6a525	0.02890811957846497
27	0x3fe1fcfd3723a20f	0.5621324612557731
28	0x3fea8e2d9e229aa7	0.8298557365968308
29	0x3fe439201a5b044d	0.6319733156925708
30	0x3fdaf129223f0ac4	0.42096927971230635
31	0x3fe630c75910d050	0.6934544314922366
32	0x3ff9d26bb1f81141	1.613872237388094
33	0x3fc8fab1303a5222	0.19515051703332725
34	0x3fe6b2cf46e33818	0.7093273529551452
35	0x3fc9d524e8ba859c	0.20181714404774886
36	0x3fceb1f9596c6dfa	0.23980633608231
37	0xbfd7144a1d039a08	-0.36061337312131103
38	0x3ffaa967bcdfe264	1.6663586976921119
39	0xbfdfd6060257f366	-0.4974379561315828
40	0xbfa6bed82dad864b	-0.04442477758017257
41	0x3ff38f927d907f31	1.2225518135891884
42	0xbfdd3dffa6da631f	-0.45690909666295626
43	0xbfdd78f22df8eaeb	-0.46050695886121557
44	0xbfd6590b7ededba0	-0.3491848696680169
45	0xbfe2d1ec09f4473a	-0.5881252474230003
46	0xbfe1fa1213a65d82	-0.5617761977945721
47	0xbfdd38cc2275cf9d	-0.45659163823369814
48	0xbfcb5f2ab16a654a	-0.21384175932761657
49	0x3fb00ac865f2bec1	0.0626645325562505
50	0xbfda129af9907f5d	-0.4073855816986816
51	0x3f8c368e9f7e5e66	0.013775934450492144
52	0x3fb3ac122179b21b	0.07684434239644881
53	0xbfe2e5dc30207cb0	-0.5905590953806463
54	0xbfcefcfcbf58f64d	-0.2420955595315938
55	0xbf9f4bc1b388775d	-0.030562426169232427
56	0xbfd82638af09f2f6	-0.37733285039557474
57	0xbfdd3c43d00e31f4	-0.4568032771865369
58	0xbfc147e280f43559	-0.13500624939517072
59	0xbfd1a5d331518f59	-0.27574615303295996
60	0xbfd84fd4d22e8f0d	-0.3798725178296401
61	0x40104e56d3a362b4	4.076503092620147
62	0x3ff2408697ec6102	1.1407533583169998
63	0x3fd63a7927195c25	0.3473189241244106
64	0xbfdd9b9ef5ecc253	-0.46262334838960334
65	0xbfbbecb2bc3c2fad	-0.10908047767242009
66	0xbfce41be213437e5	-0.23638130780494673
67	0xbfda85085a352c9c	-0.41436966714236134
68	0xbfd6846378cfa8e3	-0.35183035657850165
69	0xbfdf8ef09ba41369	-0.4930993575983878
70	0xbfdcdea480fbd2c0	-0.4510890254598898
71	0xbfdee508617940b5	-0.48272904890928753
72	0xbfdc33007004cee0	-0.44061289729437014
73	0xbfe0c654a51245c2	-0.5242102836656886
74	0xbfd473988f8913e8	-0.3195554162705876
75	0xbfe1f778517413c1	-0.561458739365314
76	0xbfdb5f7c12b56016	-0.42770292117120456
77	0xbfdf90ac72704495	-0.4932051770748072
78	0xbfdabac75cef20e5	-0.41765007091136247
79	0xbfded3b1fd7f5501	-0.48167085414509364
80	0xbfe3244664d766d3	-0.5981780976828425
81	0xbfe006c06def0c6d	-0.5008241793770033
82	0xbfe03c7f70a900b5	-0.5073849869150054
83	0xbfe37cb22f853284	-0.6089716842776203
84	0xbfe13016d3b9fd28	-0.5371202597888542
85	0xbfe2883ce10e1d7c	-0.5791305919273522
86	0xbfaadcf652a24dea	-0.05246705778804624
87	0xbfe37e6e065163b0	-0.6091833232304591
88	0xbfdedc5d2f7c4adb	-0.4821999515271906
89	0xbfe2c32f682ca548	-0.5863263163238708
90	0xbfe3da517e9791b8	-0.6204001877309144
91	0xbfbd7eed6548bf38	-0.11521800730474474
92	0xbfc0f821e8435f82	-0.13257240143752475
93	0xbfcb81d7795e3cb3	-0.21489995409181048
94	0xbfdd4bde5d3bec7c	-0.4577556524743114
95	0xbfc2487aaf00a293	-0.14283689065020563
96	0xbfdcf1b6bbc1efa0	-0.4522530397005031
97	0xbfde3e97d4e6d059	-0.4725703791730261
98	0xbfd947c1ce3e066c	-0.3950047029576129
99	0xbfa208283287d7ac	-0.0352184831316856
100	0xbfe279803f467b89	-0.5773316608282225
101	0xbfe391804117808f	-0.6115113517116856
102	0xbfe1912dd064beb3	-0.5489720411478259
103	0xbfde70df2a08624a	-0.4756391439891884
104	0xbfdf68cc2617d9a9	-0.4907713291171612
105	0xbfe14406f9e6329d	-0.5395541077465001
106	0xbfd1c87ff94566c1	-0.27786254256134774
107	0xbfe15e088fdd142c	-0.5427286920390819
108	0xbfda9f09f02c0e2b	-0.41595695928865223
109	0xbfe338368b039c49	-0.6006119456404885
110	0xbfe0018ce98a78ea	-0.5001892625184869
111	0xbfde3cdbfe1a9f2d	-0.47246455969660667
112	0xbfd794963409d0a5	-0.36844401437634594
113	0xbf8c59b12645d109	-0.013842948894968747
114	0xbfe1346c6cb87815	-0.5376493571709512
115	0xbfe1834f1a033556	-0.5472789295251157
116	0xbfd84729a0319933	-0.37934342044754316
117	0xbfb116b44008defd	-0.06675268710466394
118	0xbf97d1b362f46b36	-0.023260882296294492
119	0xbfc0c79669edfebd	-0.1310909287676533
120	0xbfe248f4c0f11ac4	-0.5714057701487367
121	0xbfe32c13ab6e4417	-0.599130472970617
122	0xbfdd41775472c577	-0.4571207356157951
123	0xbfe0a9b94ce91a72	-0.5207182409438487
124	0xbfdee8800f11a30c	-0.4829406878621263
125	0xbfe1edef34110551	-0.5602947251247007
126	0xbfe2d3a7e0c07866	-0.5883368863758391
127	0xbfe2457d1358b86c	-0.5709824922430591
128	0xbfe08d1df4bfef22	-0.5172261982220088
129	0xbfe37af658b90158	-0.6087600453247815
130	0xbfe2387c485d47a5	-0.5693952000967683
131	0xbfe34a6ada63a093	-0.6028341546452957
132	0xbfe34ec073621b80	-0.6033632520273926
133	0xbfe33303069f08c6	-0.5999770287819721
134	0xbfe26ff721e36d19	-0.5761676465876092
135	0xbfd6f6d0d9745622	-0.3588144420221814
136	0xbfe2eccb8b51415f	-0.5914056511920015
137	0xbfe3d3622366cd09	-0.6195536319195593
138	0xbfdd355474dd6d45	-0.4563799992808593
139	0xbfd4d9e3109868f6	-0.3257987653793316
140	0xbfe3a2d6a5116c44	-0.6136277412400735
141	0xbfdcbbf7b907fb57	-0.448972635931502
142	0xbfdeb105358b7d98	-0.4795544646167058
143	0xbfe1137b7b90d1d8	-0.5336282170670144
144	0xbfd67840993a50b1	-0.3510896202435659
145	0xbfe0723e7362f4fe	-0.5139457944530077
146	0xbfe30f78534518c7	-0.595638430248777
147	0xbfe38029dd1d94db	-0.6093949621832978
148	0xbfdfa3bead366174	-0.49436919131542045
149	0xbfe00e8db485e9b1	-0.5017765546647778
150	0xbfe3db2f69fdaa4e	-0.6205060072073338
151	0xbfe2d7fd79bef353	-0.5888659837579361
152	0xbfe123f3f424a4f6	-0.5356387871189827
153	0xbfe3e90e205f33ab	-0.6221991188300441
154	0xbfe3eac9f72b64d6	-0.6224107577828828
155	0xbfe262f656e7fc52	-0.5745803544413184
156	0xbfdc0430c87b9f46	-0.4377557714310466
157	0xbfe0c9cc52aaa819	-0.5246335615713661
158	0xbfe36d17a25777fb	-0.6070669337020712
159	0xbfe22c5968c7ef74	-0.5679137274268968
160	0xbfdc8b6c3ab29a92	-0.4460096905917591
161	0xbfe37d901aeb4b1a	-0.6090775037540397
162	0xbfe09251792482a5	-0.5178611150805251
163	0xbfdd030d1fbbdb54	-0.453311234464697
164	0xbfe0e82381a00495	-0.5283372432460448
165	0xbfe1981d2b958361	-0.549818596959181
166	0xbfe1cb426c1d2de8	-0.556061946067925
167	0xbfe25b2910511f0e	-0.5736279791535439
168	0xbfde37a879b60baa	-0.4721471012673485
169	0xbfe00b1606ed875a	-0.5013532767591002
170	0xbfe36a7de0252e3a	-0.6067494752728131
171	0xbfd8ed9a2cc4098f	-0.3895020901838046
172	0x400f2af4f9aecfd1	3.8959750658486674
173	0x4011508f1b0f3e06	4.328670904927554
174	0x4000d49db31c3204	2.103816413209872
175	0x3fd2b1752abd192e	0.29208115743348884
176	0xbfc50171fba5d916	-0.1641066054105031
177	0xbfd2d6f6ddb35d58	-0.2943703808827727
178	0x401b5ce58f9c7794	6.840719455647463
179	0x3fe639728b0dc62a	0.6945126262564305
180	0x3fecfbb9eb157641	0.9057283011895337
181	0x3ff726e4260157d0	1.4469949230747154
182	0x3fe9d2eefffddc3f	0.8069987296902424
183	0x3ffe032d1bffe976	1.8757754415260854
184	0x3ff09acabe66a84d	1.037791007760933
185	0x3ffec863cd3ac298	1.9239233032969079
186	0x3ff29271fd1c744f	1.1607532393602644
187	0x3ff7ec1ad73c30f3	1.495142784845538
188	0x400efa697b596f0b	3.8722715031307238
189	0x3ffad372d5b78ac6	1.6766231869047927
190	0x40034f2acb0a7e64	2.4136558401658466
191	0x40003ea59f1d94c6	2.0305893355276536
192	0x3ff811d057155e68	1.504349079294025
193	0x3ffab58a9c753a95	1.6693216430318547
194	0x3fdeb1a7f821732f	0.4795932696486486
195	0x3ff8101480492d3d	1.5039258013883476
196	0x3ff1249ff2cfed59	1.071441601262299
197	0x3fff43eb558f71fd	1.9540818540764342
198	0x3fa2dd4af6ee90d4	0.036844580309919245
199	0x3fdf5d4c0918770e	0.49006939781416825
200	0x3fe82790ac6083bc	0.754829727815483
201	0x3fe5e3a08292443a	0.6840364980909108
202	0x3fd881031319e569	0.3828742682013258
203	0x3fe7ffb0600818d1	0.7499620319001911
204	0x3ffc661c7477269b	1.7749294804984064
205	0x3fc4dc930b458a83	0.16298139620183258
206	0x3fec608e52b24580	0.8867866149104628
207	0x3fc703e7dcea9eb6	0.17980669295251567
208	0x3fcf2466ba111b3a	0.2432983788041499
209	0xbfd5ce585f0f7dfe	-0.34071931155446566
210	0x4000d42ebd6925b9	2.103604774257033
211	0xbfded729ab17b758	-0.4818824930979324
212	0x3fc0f278123e8601	0.13239956751662876
213	0x3ffcb876cf5a4633	1.7950351810180905
214	0xbfdb875c5f0dcb01	-0.4301367691288505
215	0xbfd7887354747873	-0.3677032780414102
216	0xbfd5b7ce76b0fec6	-0.33934365836101354
217	0xbfe2bb622195c803	-0.5853739410360962
218	0xbfe0eabd43d24e56	-0.5286547016753029
219	0xbfdc17430341bc26	-0.4389197856716599
220	0xbfcb7e5fcbc5da5c	-0.2147941346153911
221	0x3fc6d35c5e953df0	0.1783252202826442
222	0xbfd82d280a3ab7a4	-0.37775612830125227
223	0x3fd08175271b0f22	0.25790146655002577
224	0x3fc03e28cf4a8c47	0.12689695474282045
225	0xbfe2674befe6773f	-0.5751094518234153
226	0xbfc3de2d05a59474	-0.1552177693912743
227	0x3fb69ffbf53d706a	0.08837866532616237
228	0xbfd9382741104be3	-0.3940523276698384
229	0xbfdd3c43d00e31f4	-0.4568032771865369
230	0x40194e613041e322	6.326542619725645
231	0xbfda78e57a9fd46b	-0.41362893080742563
232	0xbfdd757a80608894	-0.4602953199083768
233	0x3fda0fc60e8e129c	0.4072127477777856
234	0x3fec28358dc60776	0.8799083489432025
235	0x3fd509557ab78e26	0.3286946962745979
236	0xbfde82358e024dfe	-0.47669733875338227
237	0x3fd6bc8114ebc3ed	0.3552553848558649
238	0xbfcc2f37612171be	-0.22019092791278
239	0xbfd3a8bf64369af7	-0.3071745375295189
240	0xbfc8f96bab0e66f5	-0.19511171200138447
241	0xbfe200238371099b	-0.5625169341295079
242	0xbfdca1f6231119c9	-0.44738534378521116
243	0xbfdca1f6231119c9	-0.44738534378521116
244	0xbfdc17430341bc26	-0.4389197856716599
245	0xbfe0bbed9c491ebc	-0.5229404499486558
246	0xbfcf53acb33a90d2	-0.24474104644207856
247	0xbfde9c3723f92f8d	-0.47828463089967316
248	0xbfdc6faecdef87d7	-0.4443165789690488
249	0xbfdc82c108b5a4b7	-0.4454805932096621
250	0xbfdb0fbb7a048a3f	-0.4228352252559126
251	0xbfdf76aadc796306	-0.4916178849285163
252	0xbfe31c791e40898e	-0.5972257223950679
253	0xbfe076940c616feb	-0.5144748918351046
254	0xbfdf7d9a37aa27b5	-0.4920411628341939
255	0xbfe38719384e598a	-0.610241517994653
